…
        "<a href=\"https://colab.research.google.com/github/yeamuhid/Meching-Learning-/blob/main/VGG%20model%20with%20Batch%20Normalization%20using%20PyTorch\" target=\"_parent\"><img src=\"https://colab.research.google.com/assets/colab-badge.svg\" alt=\"Open In Colab\"/></a>"
      ]
    },
    {
      "cell_type": "code",
      "execution_count": null,
      "metadata": {
        "colab": {
          "base_uri": "https://localhost:8080/"
        },
        "id": "LYhQ91XGa7j6",
        "outputId": "54332cc1-dcf9-48ce-f46d-6bf4a5bb0e17"
      },
      "outputs": [
        {
          "output_type": "stream",
          "name": "stdout",
          "text": [
            "VGG(\n",
            "  (features): Sequential(\n",
            "    (0): Conv2d(3, 64, kernel_size=(3, 3), stride=(1, 1), padding=(1, 1))\n",
            "    (1): BatchNorm2d(64, eps=1e-05, momentum=0.1, affine=True, track_running_stats=True)\n",
            "    (2): ReLU(inplace=True)\n",
            "    (3): Conv2d(64, 64, kernel_size=(3, 3), stride=(1, 1), padding=(1, 1))\n",
            "    (4): BatchNorm2d(64, eps=1e-05, momentum=0.1, affine=True, track_running_stats=True)\n",
            "    (5): ReLU(inplace=True)\n",
            "    (6): MaxPool2d(kernel_size=2, stride=2, padding=0, dilation=1, ceil_mode=False)\n",
            "    (7): Conv2d(64, 128, kernel_size=(3, 3), stride=(1, 1), padding=(1, 1))\n",
            "    (8): BatchNorm2d(128, eps=1e-05, momentum=0.1, affine=True, track_running_stats=True)\n",
            "    (9): ReLU(inplace=True)\n",
            "    (10): Conv2d(128, 128, kernel_size=(3, 3), stride=(1, 1), padding=(1, 1))\n",
            "    (11): BatchNorm2d(128, eps=1e-05, momentum=0.1, affine=True, track_running_stats=True)\n",
            "    (12): ReLU(inplace=True)\n",
            "    (13): MaxPool2d(kernel_size=2, stride=2, padding=0, dilation=1, ceil_mode=False)\n",
            "    (14): Conv2d(128, 256, kernel_size=(3, 3), stride=(1, 1), padding=(1, 1))\n",
            "    (15): BatchNorm2d(256, eps=1e-05, momentum=0.1, affine=True, track_running_stats=True)\n",
            "    (16): ReLU(inplace=True)\n",
            "    (17): Conv2d(256, 256, kernel_size=(3, 3), stride=(1, 1), padding=(1, 1))\n",
            "    (18): BatchNorm2d(256, eps=1e-05, momentum=0.1, affine=True, track_running_stats=True)\n",
            "    (19): ReLU(inplace=True)\n",
            "    (20): Conv2d(256, 256, kernel_size=(3, 3), stride=(1, 1), padding=(1, 1))\n",
            "    (21): BatchNorm2d(256, eps=1e-05, momentum=0.1, affine=True, track_running_stats=True)\n",
            "    (22): ReLU(inplace=True)\n",
            "    (23): MaxPool2d(kernel_size=2, stride=2, padding=0, dilation=1, ceil_mode=False)\n",
            "    (24): Conv2d(256, 512, kernel_size=(3, 3), stride=(1, 1), padding=(1, 1))\n",
            "    (25): BatchNorm2d(512, eps=1e-05, momentum=0.1, affine=True, track_running_stats=True)\n",
            "    (26): ReLU(inplace=True)\n",
            "    (27): Conv2d(512, 512, kernel_size=(3, 3), stride=(1, 1), padding=(1, 1))\n",
            "    (28): BatchNorm2d(512, eps=1e-05, momentum=0.1, affine=True, track_running_stats=True)\n",
            "    (29): ReLU(inplace=True)\n",
            "    (30): Conv2d(512, 512, kernel_size=(3, 3), stride=(1, 1), padding=(1, 1))\n",
            "    (31): BatchNorm2d(512, eps=1e-05, momentum=0.1, affine=True, track_running_stats=True)\n",
            "    (32): ReLU(inplace=True)\n",
            "    (33): MaxPool2d(kernel_size=2, stride=2, padding=0, dilation=1, ceil_mode=False)\n",
            "    (34): Conv2d(512, 512, kernel_size=(3, 3), stride=(1, 1), padding=(1, 1))\n",
            "    (35): BatchNorm2d(512, eps=1e-05, momentum=0.1, affine=True, track_running_stats=True)\n",
            "    (36): ReLU(inplace=True)\n",
            "    (37): Conv2d(512, 512, kernel_size=(3, 3), stride=(1, 1), padding=(1, 1))\n",
            "    (38): BatchNorm2d(512, eps=1e-05, momentum=0.1, affine=True, track_running_stats=True)\n",
            "    (39): ReLU(inplace=True)\n",
            "    (40): Conv2d(512, 512, kernel_size=(3, 3), stride=(1, 1), padding=(1, 1))\n",
            "    (41): BatchNorm2d(512, eps=1e-05, momentum=0.1, affine=True, track_running_stats=True)\n",
            "    (42): ReLU(inplace=True)\n",
            "    (43): MaxPool2d(kernel_size=2, stride=2, padding=0, dilation=1, ceil_mode=False)\n",
            "  )\n",
            "  (avgpool): AdaptiveAvgPool2d(output_size=(7, 7))\n",
            "  (classifier): Sequential(\n",
            "    (0): Linear(in_features=25088, out_features=4096, bias=True)\n",
            "    (1): ReLU(inplace=True)\n",
            "    (2): Dropout(p=0.5, inplace=False)\n",
            "    (3): Linear(in_features=4096, out_features=4096, bias=True)\n",
            "    (4): ReLU(inplace=True)\n",
            "    (5): Dropout(p=0.5, inplace=False)\n",
            "    (6): Linear(in_features=4096, out_features=10, bias=True)\n",
            "  )\n",
            ")\n"
          ]
        }
      ],
      "source": [
        "import torch\n",
        "import torch.nn as nn\n",
        "\n",
        "class VGG(nn.Module):\n",
        "    def __init__(self, features, num_classes=1000, init_weights=True):\n",
        "        super(VGG, self).__init__()\n",
        "        self.features = features\n",
…
        "# Example usage\n",
        "if __name__ == \"__main__\":\n",
        "    model = VGG(num_classes=10)  # Example for 10 classes\n",
        "    print(model)\n"
      ],
      "metadata": {
        "colab": {
          "base_uri": "https://localhost:8080/"
        },
        "id": "uvrwvMWTbS_h",
        "outputId": "46265c67-ad9c-49e0-e225-4146bad12cdf"
      },
      "execution_count": null,
      "outputs": [
        {
          "output_type": "stream",
          "name": "stdout",
          "text": [
            "VGG(\n",
            "  (features): Sequential(\n",
            "    (0): Conv2d(3, 64, kernel_size=(3, 3), stride=(1, 1), padding=(1, 1))\n",
            "    (1): BatchNorm2d(64, eps=1e-05, momentum=0.1, affine=True, track_running_stats=True)\n",
            "    (2): ReLU(inplace=True)\n",
            "    (3): Conv2d(64, 64, kernel_size=(3, 3), stride=(1, 1), padding=(1, 1))\n",
            "    (4): BatchNorm2d(64, eps=1e-05, momentum=0.1, affine=True, track_running_stats=True)\n",
            "    (5): ReLU(inplace=True)\n",
            "    (6): MaxPool2d(kernel_size=2, stride=2, padding=0, dilation=1, ceil_mode=False)\n",
            "    (7): Conv2d(64, 128, kernel_size=(3, 3), stride=(1, 1), padding=(1, 1))\n",
            "    (8): BatchNorm2d(128, eps=1e-05, momentum=0.1, affine=True, track_running_stats=True)\n",
            "    (9): ReLU(inplace=True)\n",
            "    (10): Conv2d(128, 128, kernel_size=(3, 3), stride=(1, 1), padding=(1, 1))\n",
            "    (11): BatchNorm2d(128, eps=1e-05, momentum=0.1, affine=True, track_running_stats=True)\n",
            "    (12): ReLU(inplace=True)\n",
            "    (13): MaxPool2d(kernel_size=2, stride=2, padding=0, dilation=1, ceil_mode=False)\n",
            "    (14): Conv2d(128, 256, kernel_size=(3, 3), stride=(1, 1), padding=(1, 1))\n",
            "    (15): BatchNorm2d(256, eps=1e-05, momentum=0.1, affine=True, track_running_stats=True)\n",
            "    (16): ReLU(inplace=True)\n",
            "    (17): Conv2d(256, 256, kernel_size=(3, 3), stride=(1, 1), padding=(1, 1))\n",
            "    (18): BatchNorm2d(256, eps=1e-05, momentum=0.1, affine=True, track_running_stats=True)\n",
            "    (19): ReLU(inplace=True)\n",
            "    (20): MaxPool2d(kernel_size=2, stride=2, padding=0, dilation=1, ceil_mode=False)\n",
            "  )\n",
            "  (classifier): Sequential(\n",
            "    (0): Linear(in_features=4096, out_features=4096, bias=True)\n",
            "    (1): ReLU(inplace=True)\n",
            "    (2): Dropout(p=0.5, inplace=False)\n",
            "    (3): Linear(in_features=4096, out_features=4096, bias=True)\n",
            "    (4): ReLU(inplace=True)\n",
            "    (5): Dropout(p=0.5, inplace=False)\n",
            "    (6): Linear(in_features=4096, out_features=10, bias=True)\n",
            "  )\n",
            ")\n"
          ]
        }
      ]
    },
    {
      "cell_type": "code",
      "source": [
        "import torch\n",
        "import torch.nn as nn\n",
        "\n",
        "class VGG(nn.Module):\n",
        "    def __init__(self, features, num_classes=1000, init_weights=True):\n",
        "        super(VGG, self).__init__()\n",
…
        "    return VGG(make_layers(cfgs['VGG19'], batch_norm=True), num_classes=num_classes)\n",
        "\n",
        "# Example usage\n",
        "if __name__ == \"__main__\":\n",
        "    model = vgg16_bn(num_classes=1000)\n",
        "    print(model)\n"
      ],
      "metadata": {
        "colab": {
          "base_uri": "https://localhost:8080/"
        },
        "id": "0aRh-f4KbjUY",
        "outputId": "cc82110a-3dc5-43c3-ee0b-f057e1aa9f13"
      },
      "execution_count": null,
      "outputs": [
        {
          "output_type": "stream",
          "name": "stdout",
          "text": [
            "VGG(\n",
            "  (features): Sequential(\n",
            "    (0): Conv2d(3, 64, kernel_size=(3, 3), stride=(1, 1), padding=(1, 1))\n",
            "    (1): BatchNorm2d(64, eps=1e-05, momentum=0.1, affine=True, track_running_stats=True)\n",
            "    (2): ReLU(inplace=True)\n",
            "    (3): Conv2d(64, 64, kernel_size=(3, 3), stride=(1, 1), padding=(1, 1))\n",
            "    (4): BatchNorm2d(64, eps=1e-05, momentum=0.1, affine=True, track_running_stats=True)\n",
            "    (5): ReLU(inplace=True)\n",
            "    (6): MaxPool2d(kernel_size=2, stride=2, padding=0, dilation=1, ceil_mode=False)\n",
            "    (7): Conv2d(64, 128, kernel_size=(3, 3), stride=(1, 1), padding=(1, 1))\n",
            "    (8): BatchNorm2d(128, eps=1e-05, momentum=0.1, affine=True, track_running_stats=True)\n",
            "    (9): ReLU(inplace=True)\n",
            "    (10): Conv2d(128, 128, kernel_size=(3, 3), stride=(1, 1), padding=(1, 1))\n",
            "    (11): BatchNorm2d(128, eps=1e-05, momentum=0.1, affine=True, track_running_stats=True)\n",
            "    (12): ReLU(inplace=True)\n",
            "    (13): MaxPool2d(kernel_size=2, stride=2, padding=0, dilation=1, ceil_mode=False)\n",
            "    (14): Conv2d(128, 256, kernel_size=(3, 3), stride=(1, 1), padding=(1, 1))\n",
            "    (15): BatchNorm2d(256, eps=1e-05, momentum=0.1, affine=True, track_running_stats=True)\n",
            "    (16): ReLU(inplace=True)\n",
            "    (17): Conv2d(256, 256, kernel_size=(3, 3), stride=(1, 1), padding=(1, 1))\n",
            "    (18): BatchNorm2d(256, eps=1e-05, momentum=0.1, affine=True, track_running_stats=True)\n",
            "    (19): ReLU(inplace=True)\n",
            "    (20): Conv2d(256, 256, kernel_size=(3, 3), stride=(1, 1), padding=(1, 1))\n",
            "    (21): BatchNorm2d(256, eps=1e-05, momentum=0.1, affine=True, track_running_stats=True)\n",
            "    (22): ReLU(inplace=True)\n",
            "    (23): MaxPool2d(kernel_size=2, stride=2, padding=0, dilation=1, ceil_mode=False)\n",
            "    (24): Conv2d(256, 512, kernel_size=(3, 3), stride=(1, 1), padding=(1, 1))\n",
            "    (25): BatchNorm2d(512, eps=1e-05, momentum=0.1, affine=True, track_running_stats=True)\n",
            "    (26): ReLU(inplace=True)\n",
            "    (27): Conv2d(512, 512, kernel_size=(3, 3), stride=(1, 1), padding=(1, 1))\n",
            "    (28): BatchNorm2d(512, eps=1e-05, momentum=0.1, affine=True, track_running_stats=True)\n",
            "    (29): ReLU(inplace=True)\n",
            "    (30): Conv2d(512, 512, kernel_size=(3, 3), stride=(1, 1), padding=(1, 1))\n",
            "    (31): BatchNorm2d(512, eps=1e-05, momentum=0.1, affine=True, track_running_stats=True)\n",
            "    (32): ReLU(inplace=True)\n",
            "    (33): MaxPool2d(kernel_size=2, stride=2, padding=0, dilation=1, ceil_mode=False)\n",
            "    (34): Conv2d(512, 512, kernel_size=(3, 3), stride=(1, 1), padding=(1, 1))\n",
            "    (35): BatchNorm2d(512, eps=1e-05, momentum=0.1, affine=True, track_running_stats=True)\n",
            "    (36): ReLU(inplace=True)\n",
            "    (37): Conv2d(512, 512, kernel_size=(3, 3), stride=(1, 1), padding=(1, 1))\n",
            "    (38): BatchNorm2d(512, eps=1e-05, momentum=0.1, affine=True, track_running_stats=True)\n",
            "    (39): ReLU(inplace=True)\n",
            "    (40): Conv2d(512, 512, kernel_size=(3, 3), stride=(1, 1), padding=(1, 1))\n",
            "    (41): BatchNorm2d(512, eps=1e-05, momentum=0.1, affine=True, track_running_stats=True)\n",
            "    (42): ReLU(inplace=True)\n",
            "    (43): MaxPool2d(kernel_size=2, stride=2, padding=0, dilation=1, ceil_mode=False)\n",
            "  )\n",
            "  (classifier): Sequential(\n",
            "    (0): Linear(in_features=25088, out_features=4096, bias=True)\n",
            "    (1): ReLU(inplace=True)\n",
            "    (2): Dropout(p=0.5, inplace=False)\n",
            "    (3): Linear(in_features=4096, out_features=4096, bias=True)\n",
            "    (4): ReLU(inplace=True)\n",
            "    (5): Dropout(p=0.5, inplace=False)\n",
            "    (6): Linear(in_features=4096, out_features=1000, bias=True)\n",
            "  )\n",
            ")\n"
          ]
        }
      ]
    },
    {
      "cell_type": "code",
      "source": [
        "import torch\n",
        "import torch.nn as nn\n",
        "from torchvision import transforms\n",
        "from torch.utils.data import DataLoader\n",
        "from torchvision.datasets import CIFAR10\n",
        "\n",
…
